wait-traning/safe/best_model.pth (torch, 839595 bytes, 17 tensors)

lstm.weight_ih_l0 f4 [512, 2]
000000 3e 2f 22 ba 21 71 e3 3c 68 a0 99 bb ba 88 89 bd
       -0.0006186849 0.027763905 -0.0046883114 -0.06715532
000010 b8 5a 97 bd b2 9b dc 3b a9 8b 3f bb 9b cc 29 bd
       -0.0739035 0.0067324275 -0.002922753 -0.041454893
000020 cf 25 a9 3d 9a 99 47 bd d7 f9 9f bd 3a b1 a4 bd
       0.082591645 -0.04873047 -0.07811325 -0.08041616
000030 ca 88 01 3d 8d 95 6d 3d 7a 24 04 bd 55 96 83 3d
       0.031624593 0.05800395 -0.03226135 0.06425158
000040 f0 e4 c1 bc 28 b1 9a bd 26 47 95 bc b9 31 01 bc
       -0.023668736 -0.07553321 -0.018222403 -0.00788539
000050 3f 12 9a bd 4e d6 44 3c b6 c3 04 bd 91 51 66 bd
       -0.075230114 0.012013985 -0.032413207 -0.05623013
000060 4c ae 6e bc 01 8c 91 3d 4f 20 b9 bb 6e 68 20 3d
       -0.014567923 0.07106782 -0.0056496034 0.039162092
000070 7b 32 22 bd 4e 32 e6 3c e0 a7 67 3c 20 e4 bb 3c
       -0.039598923 0.028100159 0.014139146 0.022935927
000080 51 25 19 bc 7d f6 46 3d 02 d9 50 3d b6 c9 a2 3c
       -0.009347276 0.048574913 0.050988205 0.019871574
000090 d9 1e 64 bd 67 ef a2 3d 80 5d 86 bd b7 a1 71 bd
       -0.05569348 0.079558186 -0.065608025 -0.058992114
0000a0 5c ba 30 bd 55 af 5b bc 88 72 58 bd 08 fd aa 3c
       -0.043146476 -0.013408502 -0.0528436 0.020872608
0000b0 ed f9 ac bd 08 c2 f6 3c ed f9 19 bc 31 61 80 bd
       -0.08446107 0.030121818 -0.009397966 -0.06268538
0000c0 6f e0 7b bc ae 93 72 bd 18 bd 5e 3c ab 3d 27 bd
       -0.015373333 -0.05922287 0.013594888 -0.040830296
0000d0 29 c3 8c 3d f6 38 30 3d c5 94 59 3d f2 90 cb bd
       0.06873161 0.043023072 0.053120393 -0.099397555
0000e0 c5 0f 96 bc 58 71 ab 3d c3 7a 18 bd 0b 80 4a 3d
       -0.018318066 0.08371228 -0.03722645 0.049438518
0000f0 73 73 1b 3d 60 55 09 bc c1 31 4b 3c ff ea 01 bd
       0.037951898 -0.008382171 0.012401999 -0.03171825
000100 18 c9 9c bd 3a a0 ef bc 29 65 b4 bd b8 dc a0 3b
       -0.07655543 -0.029251207 -0.08808357 0.004909124
000110 8a a8 86 3d 15 7a 98 bd fa d6 88 bd 16 3f 87 bd
       0.06575115 -0.0744516 -0.066816285 -0.066038296
000120 1c 45 57 3d e4 59 ac 3d 21 7e 3d bc 5e 7f 9a bd
       0.052556142 0.08415583 -0.011565716 -0.075438246
000130 00 f0 a9 bd 49 16 9c 3d d0 6a 44 bd 66 e1 70 bd
       -0.082977295 0.07621438 -0.047953427 -0.058808707
000140 43 db 4f 3d 15 a8 2d bd 0e 52 4c bd 00 4b cd 3d
       0.050746214 -0.042396624 -0.04988294 0.10024071
000150 28 56 d2 3c 2a 70 98 bd 36 8e 06 bd 66 8b ab bc
       0.025675848 -0.074432686 -0.032850467 -0.020940494
000160 db 79 9b bc ac d6 4e 3b ab 3c 3a bd 87 30 34 3d
       -0.018979004 0.003156106 -0.045468014 0.04399159
000170 41 06 e3 bc ce aa 6d 3d 96 01 fa 3c 54 c3 2c 3c
       -0.027712943 0.05802422 0.030518334 0.010544617
000180 87 4b 3f 3d 12 ef 1f bd f6 ef 42 bd fd 54 62 3d
       0.046702888 -0.039046355 -0.047592126 0.055256832
000190 79 42 84 3d 7d 6b a7 bd 73 65 96 3b 84 cf 7e 3d
       0.06457991 -0.08174799 0.0045897304 0.06220962
0001a0 59 8e 34 bd 53 a2 8c 3c 4b cb ab bd d5 88 68 bd
       -0.044081066 0.017167246 -0.083883844 -0.05677112
0001b0 6e 86 3f 3d 04 61 6b ba e7 27 4c 3d 02 9c 98 3d
       0.04675906 -0.0008978995 0.04984274 0.07451631
0001c0 a6 de b5 bd 87 4b 3a bd 5a ce 4f 3d 5e 88 96 bc
       -0.088803574 -0.045482185 0.0507339 -0.018375572
0001d0 7c 99 54 3c ca 09 a5 3d 2c fa a9 bc 27 34 66 bc
       0.012976047 0.08058508 -0.020749174 -0.01405052
0001e0 9e 27 e5 3c c4 9c e2 3b f0 2e 62 bd e2 df 85 bd
       0.027972993 0.0069156606 -0.055220544 -0.06536843
0001f0 7c 79 66 3d 41 7e 5f 3d 88 29 18 3d 25 58 86 3d
       0.0562682 0.054563764 0.037148982 0.06559781
000200 d5 df c7 bd 21 36 f9 bb 4f 5c 45 bd 49 81 ad bb
       -0.097594894 -0.0076053296 -0.048183735 -0.005294953
000210 b5 d2 0c 3b 4e 8b 28 bc 79 f6 7b bd 99 59 af bd
       0.0021487896 -0.010287119 -0.06151435 -0.08562011
000220 4c a5 a0 bc d6 ec ad 3d 8f 21 0f 3c 78 c6 59 bd
       -0.01961007 0.084924385 0.008736028 -0.05316779
000230 85 4a 5a 3c 2c 61 6a 3d a7 94 f8 3b 75 34 f0 3c
       0.013323431 0.057221577 0.00758608 0.029321888
000240 83 1e 3d bd b8 b3 7d bd 86 9a f4 3c 29 e9 88 3d
       -0.046171676 -0.06193897 0.029858839 0.06685097
000250 72 52 70 3d bf 77 95 3d f4 68 d5 3c 1e 62 06 3c
       0.058672376 0.072982304 0.026051022 0.008202104
000260 d4 66 2e 3d 56 52 7b bd ef 20 9a bd 78 d0 86 bd
       0.042578533 -0.06135782 -0.07525813 -0.06582731
000270 33 3f f2 3a 0c 2e d3 bd 13 51 a4 bd 45 0c 8e 3d
       0.001848197 -0.10311517 -0.08023276 0.06935934
000280 f7 7b c9 bd 73 3e 98 3c 92 fd 70 3d a9 c6 8b 3d
       -0.098380975 0.018584466 0.058835573 0.06825001
000290 6c 18 ef bc 41 fe f6 3c be fc 71 bd 17 9a c2 bd
       -0.02918645 0.030150535 -0.059078924 -0.095020466
0002a0 05 87 af bd a5 1a 41 bc 12 7c e1 3c e1 53 bb 3c
       -0.08570675 -0.011786138 0.027524982 0.022867145
0002b0 dd 8b 5e 3d 64 ac f7 bb c2 9a 32 3c 0b 24 94 3c
       0.054332603 -0.0075583924 0.010901155 0.018083593
0002c0 25 56 26 ba a6 4a 41 3d 8d 8d 87 3c e9 6e bd bc
       -0.0006345234 0.04719033 0.016546989 -0.023124175
0002d0 c9 51 88 3d 24 1d f4 bc af 54 79 bc 78 13 59 bc
       0.06656224 -0.029799052 -0.015217944 -0.013249271
0002e0 f1 62 ad bb ef 7a f6 3c dd 3e e6 bc a4 02 f2 3c
       -0.0052913358 0.030087916 -0.028106147 0.029542275
0002f0 90 81 4b bc bd 74 34 bd 30 e5 2d 3c fd 8c 55 bd
       -0.012421027 -0.044056643 0.010613725 -0.05213641
000300 a3 e3 0f bc 09 36 b3 bd 70 37 3b bd f5 f1 53 3c
       -0.0087823 -0.08750541 -0.045707166 0.012936105
000310 61 f3 c3 3c a3 bf 95 3c 14 bf 4e 3b 88 68 ea bb
       0.023919763 0.018279856 0.0031546997 -0.0071535744
000320 96 02 00 bd f0 85 da 3d 37 04 2f bd 54 49 e6 bc
       -0.031252466 0.10670078 -0.04272863 -0.028111137
000330 42 85 97 bd 78 8b 2f bd 49 9e 54 3d 8c 10 7f 3d
       -0.07398464 -0.042857617 0.051908765 0.06227164
000340 0c c6 b6 3c d1 57 70 3d 68 75 08 3d e7 61 2b 3d
       0.022311233 0.0586775 0.033315092 0.041841414
000350 94 0c 03 3d e9 fc 73 bd f3 07 7d bd ec 65 1a 3d
       0.031994417 -0.059567366 -0.06177516 0.037694857
000360 88 17 ff bb 3a 36 83 3d d8 ba 47 bb 35 47 75 bc
       -0.0077847876 0.06406827 -0.0030476358 -0.01497059
000370 c0 4d 1b bd 6a 44 9c 3c eb b8 04 3d dd 1a c5 3c
       -0.037915945 0.019075591 0.032402914 0.024060661
000380 47 59 88 bc c7 6d b3 bc 95 a3 a6 bc f1 4c 17 3d
       -0.016644133 -0.021902932 -0.020341674 0.03693861
000390 77 c6 ac 3b a9 08 39 3d f5 53 6f 3d a7 18 31 bd
       0.0052726823 0.045174275 0.058429677 -0.0432364
0003a0 49 3e 7f bd 13 82 87 bd 63 bd 10 3d 99 61 58 bc
       -0.06231526 -0.066166066 0.035336863 -0.013206863
0003b0 73 76 e0 bc 8f ed 8d 3d d6 67 fd 3a 62 e7 c7 bd
       -0.027400231 0.06930076 0.0019333314 -0.0976093
0003c0 27 6b e5 3c 64 41 96 3c 4b 71 23 bd 41 d4 79 3b
       0.028005196 0.018341728 -0.039902966 0.0038120898
0003d0 46 45 50 bd ba b2 5f bb 22 1a 0b bc 36 83 78 3d
       -0.050847314 -0.003413363 -0.008490117 0.060672008
0003e0 a9 a5 95 3d 0e 8f ae 3d 1a 85 a3 bd 48 55 a6 3c
       0.07306988 0.08523379 -0.079843715 0.020304337
0003f0 a5 42 b0 bd b5 6c b5 3d ef 1f 7f bd 90 43 84 bc
       -0.086064614 0.08858625 -0.062286314 -0.016145498

lstm.weight_hh_l0 f4 [512, 128]
000000 48 4a 49 3d 45 03 0b bd d2 a1 77 bd 30 b6 0f 3d
       0.049143106 -0.033938665 -0.06045706 0.035085857
000010 70 89 e8 bc 6b 5f 20 bd 57 31 81 bc 49 4f 8e bd
       -0.028385848 -0.039153498 -0.015770597 -0.06948716
000020 25 e9 85 bd 29 bd 8b 3d c6 f7 18 bc 21 44 cc 3d
       -0.065386094 0.06823189 -0.009336418 0.09973932
000030 a9 cd 9a 3c 98 16 89 3d a4 a4 c0 bd dc b4 a3 3d
       0.018896895 0.066937625 -0.09406403 0.079934806
000040 9a ff 5e 3d a9 f8 c4 bd 27 ba 80 bd 5e 28 8a 3d
       0.05444298 -0.09617741 -0.06285506 0.06745981
000050 4f 50 cb bd 0e 3f b0 3d 11 fb 42 3d 3c f7 14 bd
       -0.09927427 0.08605777 0.047602717 -0.036368594
000060 c3 99 7f 3b 8e 31 b5 bd dc 8f 9f 3c ef 0b 9c bd
       0.0039001561 -0.088473424 0.019477777 -0.07619464
000070 aa 9b 4b 3d e7 f0 1a 3d a2 72 e2 3c 29 05 af bd
       0.049709 0.0378274 0.027642552 -0.08545906
000080 56 24 93 bd 40 4d e9 bb a7 a2 42 3d ee fd 6c bd
       -0.07184665 -0.0071198046 0.0475184 -0.057859354
000090 83 f4 b8 3c 6c 93 85 bd 08 37 55 bd 88 80 49 bd
       0.02257753 -0.06522259 -0.052054435 -0.049194843
0000a0 20 23 40 3d 1d f8 2b 3d ca 38 af bd 51 00 4b 3d
       0.046908498 0.041984666 -0.085557535 0.04956085
0000b0 7f 23 77 3c 55 7d 1d 3d cd 94 c2 3c 31 cc 45 3d
       0.0150841465 0.038449604 0.023752594 0.048290435
0000c0 6f 01 c9 3c 6b 19 44 3d 11 cf 26 3d a5 21 82 bd
       0.024536816 0.047875803 0.040724818 -0.063540734
0000d0 c3 f9 04 3d 54 55 8b 3d 76 ee a4 bd 0c 9d bb 3d
       0.032464754 0.068033844 -0.08053295 0.09160814
0000e0 c5 a0 59 3d 7e e0 09 bc 07 a6 be bd 24 f2 7a bd
       0.053131837 -0.0084153395 -0.09309011 -0.06126608
0000f0 fe ae ad bd 50 d0 01 3d bd e9 2f bd 04 8e dc bb
       -0.08480643 0.031692803 -0.04294752 -0.006730797
000100 93 c9 35 3d bb 5c 1d 3d 4a 0e 03 bd 87 d6 4e ba
       0.04438169 0.038418513 -0.03199605 -0.00078902434
000110 08 10 49 bd 13 f8 97 3d c4 f1 0b bd df 78 5f bd
       -0.049087554 0.07420363 -0.034166113 -0.05455863
000120 f9 b5 22 3c 59 63 47 3c fd ad 8c 3d 54 87 33 3d
       0.009931081 0.012169682 0.06869123 0.04383023
000130 a6 a3 f3 bb 01 83 7e bd c6 eb f5 bc e6 01 cc 3b
       -0.00743528 -0.062136654 -0.030019652 0.0062258122
000140 a7 39 3a bd 39 3e 8f bd b7 59 e0 3c 2d 39 9f bd
       -0.045465138 -0.0699429 0.02738653 -0.07774577
000150 f9 d0 9c 3a d8 dc 8e bd 75 ea 16 3d fc 93 86 bc
       0.0011964134 -0.06975716 0.03684469 -0.016427986
000160 74 4d 09 3d c4 c9 3f bd 0e 8a ad 3d 50 89 15 bc
       0.03352113 -0.046823278 0.084735975 -0.009126976
000170 6f e7 a8 bc 9b 3c 36 bc 0f 20 47 bd d2 f1 bd bc
       -0.020618169 -0.011122848 -0.048614558 -0.023186598
000180 7d 46 a0 3c 68 ad 1a bd 53 8b d1 3c ab 3b a4 3d
       0.019564861 -0.03776303 0.02557913 0.08019193
000190 1e e9 87 bd 85 c8 85 3d 23 03 9c 3a 23 48 04 3d
       -0.066362604 0.06532387 0.001190279 0.032295357
0001a0 60 30 04 3d 23 f3 f1 3c f4 cd 6a bd 7a f2 49 3c
       0.032272696 0.029534882 -0.05732532 0.012325877
0001b0 f7 b3 a8 bd f9 45 67 3d a2 1d 30 3c 4a 77 97 bd
       -0.082374506 0.056463216 0.0107492525 -0.073957995
0001c0 4c df 7f bd ef 2a d4 39 87 31 bf 3d b3 81 f9 3c
       -0.062468812 0.0004046778 0.093356185 0.030457353
0001d0 6e a3 f7 3c ec 17 55 3c ea 17 2f 3d 49 85 c4 3d
       0.030229297 0.013006192 0.042747416 0.095957346
0001e0 f8 f4 81 3d 45 e4 66 bd f9 e6 ce bc 74 d5 23 bd
       0.06345552 -0.05637004 -0.02525662 -0.039998487
0001f0 fc 1a 93 3d 42 de 84 bb 61 90 74 bd fd 2d b6 bd
       0.07182881 -0.0040548155 -0.059708003 -0.0889549
000200 ce 1f 28 bb 1b 32 b0 3c 0f ab c8 3d d3 94 d9 bd
       -0.0025653723 0.021508267 0.09798252 -0.10624089
000210 f8 23 d3 3c 1c 64 9f bd 53 b4 85 3c 05 07 4c bd
       0.025773987 -0.07782766 0.016321337 -0.04981138
000220 0e c0 97 3d f9 2f 7e 3d 0b 22 d3 3d 0a ab 60 3c
       0.074096784 0.06205747 0.103092276 0.013712654
000230 4f 3d fc bb db 29 83 bd 82 98 56 bd 09 8f 71 3d
       -0.0076977382 -0.06404468 -0.052391537 0.0589743
000240 0b 9a 33 bb 39 64 6c 3d 0b 8c c1 bc 8c 07 9c 3d
       -0.002740505 0.057712767 -0.023626348 0.07618627
000250 63 f2 8c bd 86 c9 3d 3d 12 2e b6 3d 82 0b 6b 3d
       -0.06882169 0.046334766 0.08895506 0.05738402
000260 db f0 7a 3d 77 ef c1 3d 3d eb 90 bd 5d 41 99 bb
       0.061264854 0.094695024 -0.07076118 -0.0046769814
000270 c2 4e 46 bd c4 50 2d bc 5f 03 3b 3d 8c b0 50 bd
       -0.048414953 -0.010578338 0.04565751 -0.05094962
000280 46 6d 77 bd d6 d2 98 bc db cd 92 3d 54 14 b0 3d
       -0.060406946 -0.018655222 0.0716817 0.08597627
000290 37 d7 a9 bd ec 2c 9e 3d 7c 12 69 bd eb cf bb bd
       -0.08293002 0.07723412 -0.056902394 -0.091705166
0002a0 e4 a6 b8 3d f9 8e 31 3d 2b 16 02 bd 17 21 fe 3c
       0.09016207 0.04334924 -0.031759422 0.031021638
0002b0 36 aa 28 bd 9e 65 26 3d 62 9e 94 bc ac be 20 bc
       -0.04117795 0.040624253 -0.018141929 -0.009811085
0002c0 1c 42 84 3d 89 30 3c bd 38 61 3f bd 7a 83 d2 3c
       0.06457922 -0.045944724 -0.046723574 0.025697459
0002d0 76 76 45 3d b2 7d 28 3d e4 c2 40 bd 0e 32 52 3d
       0.048208676 0.041135497 -0.047060862 0.051317267
0002e0 e6 8c 4d 3c 89 2b a1 bd cf f9 9d 3d 14 d3 62 bd
       0.0125458 -0.07869632 0.07713663 -0.05537708
0002f0 ca 95 9a bd fa de cb bc b1 20 d5 bb 13 23 ad bd
       -0.07548101 -0.024886597 -0.0065041413 -0.084539555
000300 39 a2 3a 3d 09 78 67 3c 98 3f 1f 3d c1 8d 80 3b
       0.045564864 0.01412774 0.038879007 0.0039231484
000310 f4 e8 03 3d b4 35 26 bc cb 61 bd 3d aa a4 a2 bc
       0.032204583 -0.01014464 0.09247168 -0.019853909
000320 ce ad 85 bc 59 08 9e bc cb 01 31 bc 24 b9 84 bd
       -0.016318228 -0.01929109 -0.01080365 -0.06480625
000330 5e b2 1e bd 43 dd a6 bc 4b ac 57 bc 59 42 ee bc
       -0.038744323 -0.020369178 -0.013163636 -0.029084371
000340 49 e7 9d 3b 07 ee 64 bd c3 c1 16 3d 8e b0 7a bd
       0.004818831 -0.055891063 0.03680588 -0.061203532
000350 e5 bd 0d bd 8c 02 1f bd 50 a1 8a bd 5d 8c 23 bd
       -0.034604926 -0.03882079 -0.06769049 -0.039928783
000360 b9 5f aa 3d 47 1d c9 3d af b8 89 3d ad e6 22 bd
       0.08319039 0.09820037 0.06724679 -0.03977077
000370 a8 d7 c0 bc a2 97 a5 3d bb 0f 88 3d 32 5a 43 3d
       -0.023540333 0.08085562 0.06643625 0.04769344
000380 fe 51 7a 3c 22 8f 6c 3d f9 22 a8 3d 49 89 a8 3c
       0.0152783375 0.05775369 0.082097955 0.020573275
000390 54 47 94 bd 47 21 7b 3d 72 0a 8b bd 86 9b 3c 3d
       -0.07240167 0.061311033 -0.06789102 0.046046756
0003a0 fa 7d 8f bd 74 fd 02 bd ca ab 4c bd 18 b6 38 3d
       -0.0700645 -0.031979993 -0.04996852 0.045095533
0003b0 c6 fa 85 3d be e8 91 bc 9c 5f 8b bd d1 6d c1 3b
       0.06541972 -0.017811175 -0.068053454 0.0059029837
0003c0 6a 69 19 3d c3 87 1b bb ec 5e b3 3d c8 de c5 bd
       0.037454046 -0.0023732043 0.08758339 -0.09661633
0003d0 f8 51 5a 3d 8d 85 9d bd ba df 00 bd 14 95 ee 3c
       0.053300828 -0.076914884 -0.031463362 0.02912382
0003e0 96 cf 0a bc e2 e8 b3 bd 45 64 93 bb 50 39 bf 3d
       -0.008472344 -0.08784653 -0.004498037 0.09337103
0003f0 2e c7 80 3b 36 b1 22 3d 05 94 16 bd 07 81 be bc
       0.003929994 0.039719783 -0.036762256 -0.023254884

lstm.bias_ih_l0 f4 [512]
000000 88 45 6a 3d 19 ba e2 ba c5 2e 84 3d 29 62 35 3d
       0.057195216 -0.0017297893 0.06454233 0.044283066
000010 78 1f 83 3d 43 4c be bc 29 24 8e bc 80 5c 39 3d
       0.064024866 -0.023229724 -0.017351227 0.04525423
000020 7c e5 c6 3c 6b 10 a1 3c a5 e6 80 bd 9e 03 9b bd
       0.024279349 0.019661149 -0.06293992 -0.07569049
000030 bf a9 31 bd 4b 73 ad 3d b8 d2 f9 bc a9 b6 66 3d
       -0.043374773 0.08469256 -0.030495986 0.056326542
000040 98 0f 7e 3d 1c c0 2e bc 45 43 71 3d 2e e8 fc 3b
       0.06202659 -0.01066592 0.058902044 0.0077181077
000050 aa 07 2c bd 3a 21 23 3d a2 58 93 3d 5a 10 06 bd
       -0.041999497 0.03982661 0.0719464 -0.032730438
000060 57 2c 34 3d 33 c3 74 3c e2 2b 30 3d f9 a2 55 bd
       0.0439876 0.014939117 0.0430106 -0.052157376
000070 69 f9 3a bd f6 67 3a bd ca a8 10 3d c2 ab 33 3d
       -0.045648012 -0.0455093 0.03531722 0.043864973
000080 6e 49 44 bd b7 53 d7 3d 71 6a d9 bc da 76 40 bd
       -0.04792159 0.10514014 -0.026540013 -0.046988346
000090 4d df ca bc 00 7d 8b 3d 61 4f 9e bd 25 23 c3 3d
       -0.024764681 0.06810951 -0.07729984 0.09528188
0000a0 0b c1 a1 3d 14 2d 2f bd 7d fd a9 3d 66 d6 eb bc
       0.07898148 -0.0427676 0.08300302 -0.028788757
0000b0 d6 b4 d4 3d e1 24 8a bd fe a0 65 3d 6d a5 92 bc
       0.10386054 -0.06745315 0.056061737 -0.017901147
0000c0 46 14 a6 3c 03 b2 85 3d 2f 50 29 3c ba 28 97 bc
       0.020273339 0.06528094 0.010334059 -0.018452037
0000d0 f2 6e 34 3c bb 8f 0f bd 43 e5 a6 3c fa 61 ce bc
       0.01101278 -0.03504918 0.020372992 -0.025193203
0000e0 36 8e 96 bd 55 a2 74 bd 5b c6 b0 3d 24 6a 8e bb
       -0.07351343 -0.059725124 0.08631583 -0.004346149
0000f0 38 d3 50 3d af 3a e7 bc ff 1e c4 3c 0a 1f 0b 3c
       0.050982684 -0.028226225 0.023940561 0.008491287
000100 69 35 81 bd 8f 42 73 bd 5e 8e 29 3c 40 70 bd 3d
       -0.06309015 -0.059389647 0.010348884 0.092499256
000110 a6 96 84 3b 34 0f 8f 3c 46 7a c8 bc fb 63 e9 bb
       0.004046279 0.017463304 -0.024472367 -0.0071225143
000120 43 66 16 3d bc e4 a3 bc e5 03 cc bb a2 2a 4a bd
       0.036718618 -0.02000653 -0.00622605 -0.049357064
000130 1b ef 36 3d 31 29 84 bd 83 ba a9 3c 79 2b a6 3d
       0.044661622 -0.06453169 0.020718819 0.081137605
000140 e5 5b 02 3d e8 1d 2e bd 07 75 6d 3c 6a 86 8c 3d
       0.03182592 -0.04250899 0.0144932335 0.06861575
000150 bc 4d cb bc c1 8f 1d 3d cb 7e 46 3d 7e ec e1 3c
       -0.02481734 0.038467173 0.048460763 0.027578589
000160 c7 ed 7d 3d 19 e1 1a 3c 0f 98 05 3a ed 34 b4 3d
       0.06199434 0.0094530815 0.0005096206 0.08799157
000170 b9 f3 68 bd 48 9a 99 3d ff 39 b3 3d 1b ef a8 3d
       -0.056873057 0.0750013 0.08751296 0.08248731
000180 94 ef 49 bd 7b a6 cf bc 3c d5 d1 bc a7 03 7f bd
       -0.049300745 -0.025347939 -0.025614373 -0.062259343
000190 34 91 5b bd 05 5b 46 bd 1e c8 61 bb 55 7b 46 3d
       -0.053605273 -0.048426647 -0.0034451555 0.048457462
0001a0 77 c9 08 3d d0 4d a5 bc 17 53 b1 3d b9 16 02 bd
       0.033395257 -0.020178705 0.08658426 -0.03175995
0001b0 e1 e8 b4 3d 51 b2 79 bd 5f f0 bd bc fc 1c e7 3b
       0.088334806 -0.06096107 -0.023185907 0.0070530158
0001c0 95 b1 4d 3d bf d9 81 bd 6f ec c2 3d ca 3f a3 3d
       0.050218184 -0.0634036 0.095177524 0.07971151
0001d0 3e ec c8 3d 60 4c 12 3d 10 42 83 3c 49 99 c0 3d
       0.098106846 0.035717368 0.016022712 0.09404237
0001e0 6a bc cf bc 49 8e 58 3d e5 dc 87 bd 61 0a 17 3d
       -0.025358398 0.05287007 -0.06633929 0.036875132
0001f0 1b 21 b9 bc e7 2f 12 3c 5e b5 d9 3c af 68 db 3c
       -0.022598794 0.008922554 0.02657574 0.026783315
000200 1a 80 33 3b 7e 94 24 3d db c9 96 bc 73 e5 24 bd
       0.0027389587 0.040180676 -0.018406799 -0.040257882
000210 6c 11 bf 3c 0c 2b d1 bd a5 5d c9 3d 37 60 dd 3c
       0.023323737 -0.10213289 0.098323144 0.027023418
000220 1c 8f 5d 3d d1 73 cb bc bb 55 b5 3c 67 38 bf bc
       0.054091558 -0.024835499 0.022135606 -0.023342324
000230 35 66 01 3d cf cc d8 bc 0b 32 5a 3d 73 ca 29 bb
       0.031591613 -0.026464848 0.05327038 -0.0025908023
000240 33 9e 86 bd d7 ea 92 bd eb 49 41 3d 45 47 89 3d
       -0.06573143 -0.071736984 0.047189634 0.06703047
000250 6c d0 75 3c b5 3b 17 bd c5 fc f5 bb b5 b5 40 3c
       0.015003305 -0.036922175 -0.007506939 0.011762072
000260 85 88 47 bd a7 96 8f bd 6b b3 b1 bd 2e 34 07 3d
       -0.04871418 -0.070111565 -0.086767994 0.033008747
000270 25 d4 45 3d 46 d6 b8 bc 57 ec 39 3d ee ad ed bc
       0.04829802 -0.022563111 0.045391407 -0.0290136
000280 23 dc c9 3d df 21 f1 3c 9c b4 6a 3d 82 50 07 3d
       0.09856441 0.029435096 0.05730115 0.033035763
000290 16 f2 02 bd 13 c6 c1 3a d7 d3 1c bd 6e 79 c1 3d
       -0.031969152 0.0014783762 -0.038287964 0.09446989
0002a0 ef 99 95 3d 28 5a 40 3c 42 97 6b bd 85 40 f7 3c
       0.07304751 0.011740245 -0.057517298 0.030182132
0002b0 1e 5f 9d 3d 26 e2 7f bd 66 29 9f 3d 22 37 61 3d
       0.07684158 -0.06247153 0.07771568 0.05498422
0002c0 43 2a 12 bd 66 6d b4 3d 33 0b 42 3c 65 33 2f bb
       -0.035684835 0.088099286 0.01184349 -0.0026733514
0002d0 64 cf cd bc f2 b5 f2 3c 91 37 8a 3d 62 38 0a bc
       -0.025123306 0.029627774 0.0674888 -0.008436294
0002e0 fb d3 9d bc 3e 37 c6 3c 48 d9 55 bd 8a 82 b7 3c
       -0.01926612 0.024196263 -0.05220917 0.022401113
0002f0 5b 5c 92 bd 04 df 7a bc ef a7 74 bd 98 76 c7 bc
       -0.07146522 -0.01531196 -0.059730466 -0.024348542
000300 63 17 c7 bd b1 ef e1 3c 78 06 ff 3c ed 68 54 3d
       -0.097212575 0.027580114 0.031131014 0.051857878
000310 e9 83 05 bd 5e fb 9f bd 6d ae 2b bd 59 23 b3 3d
       -0.032596502 -0.07811616 -0.041914392 0.087469764
000320 23 d3 85 bd f7 34 b7 3c 2b ba 95 3d 5b 29 76 bc
       -0.06534412 0.022364123 0.07310899 -0.015024508
000330 f5 a1 73 bd 57 0f 3b 3d f9 92 b5 3d a3 31 90 bd
       -0.059480626 0.045668926 0.088659234 -0.070407175
000340 90 c9 b5 3a d0 38 89 3d d3 bd c0 3d 4b fd 9f 3d
       0.0013869274 0.06700289 0.09411206 0.07811984
000350 e2 e4 82 bd 9c ec 6a 3c 2d da d7 bc 77 c6 15 3d
       -0.06391312 0.014338639 -0.026349152 0.036566224
000360 b4 14 1c 3c c9 db a3 bb 11 7e 95 bc ab e1 70 bd
       0.00952642 -0.0050005657 -0.01824859 -0.058808964
000370 2e 32 a9 3c b9 c0 16 3d 0c 09 5b bd 80 32 2f 3d
       0.02065381 0.03680489 -0.053475425 0.04277277
000380 4e 0e 86 3c b4 e7 96 3c 8d 34 6e bd 9c fa 37 bd
       0.016364243 0.018421032 -0.058155585 -0.044916734
000390 67 b1 9a bc a3 69 52 3d 47 2c 47 bd 30 27 ae 3d
       -0.01888342 0.051370274 -0.04862621 0.08503568
0003a0 ed e2 8b 3c ea dc f1 bc 3b fd 0e 3c 9a c0 85 bc
       0.01707598 -0.029524285 0.008727367 -0.016327191
0003b0 22 c1 82 3c 27 d7 b4 3d 6e b3 ab 3b 05 de 67 bd
       0.015961234 0.088300996 0.0052398955 -0.05660822
0003c0 2c e7 56 3d cd a5 d0 3d ee 05 a8 3d a0 fb 15 bd
       0.052466556 0.10187874 0.08204256 -0.03661692
0003d0 29 f0 de bc 9a f9 5c bc 2a 8e 31 bd 0a 82 d7 bc
       -0.027214127 -0.013487244 -0.04334847 -0.026307125
0003e0 23 cf a0 bc 4e d5 6f bc 15 c7 26 3d 47 b6 8f bd
       -0.01963002 -0.014638258 0.040717203 -0.070171885
0003f0 cb c0 ab bb 51 d1 79 bd f1 f7 9b 3d 19 23 bf bb
       -0.0052414886 -0.060990635 0.076156504 -0.0058330414

lstm.bias_hh_l0 f4 [512]
000000 d0 db 99 3d 8c 54 99 bd c2 1c 50 3c 7d 58 1b 3d
       0.07512629 -0.07486829 0.012702169 0.037926186
000010 27 f8 b1 bd 67 e9 28 bd 97 e2 87 3d 8e 5f 5c 3d
       -0.086899094 -0.041238215 0.066350155 0.053802066
000020 65 a5 24 bd bc fb 32 3d 0a 5d b0 bc a3 6a 9c bd
       -0.040196795 0.043697104 -0.02152874 -0.07637527
000030 80 46 12 3c 37 79 6e bd c9 06 e9 3c 77 6a 87 bd
       0.008927941 -0.05822107 0.028445618 -0.066121034
000040 d7 ea d6 3c 61 48 27 3d 58 c7 b5 3c 21 9e ad 3c
       0.026235027 0.04084051 0.022189781 0.021193566
000050 28 94 55 bd 2d 74 6a bd 25 97 1e bd d2 a4 5a 3d
       -0.052143246 -0.0572397 -0.03871836 0.05337984
000060 ac eb ec 3b 86 b3 fe 3c ed 12 d2 bc db 6b 3f 3c
       0.0072302427 0.031091463 -0.02564379 0.01168343
000070 82 16 d1 3c 7a f9 8d bd d3 cb 88 bd d2 56 9b 3c
       0.025523428 -0.069323495 -0.066795014 0.018962298
000080 65 82 94 bd cd 93 1e 3d e0 00 23 bd 1b 91 c7 3c
       -0.07251433 0.038715173 -0.039795756 0.024361184
000090 a1 bd 90 bc e4 7a 72 3d 0b 4d 93 bc 18 51 88 3d
       -0.017668547 0.05919923 -0.017981073 0.066560924
0000a0 65 53 b7 3c 14 e5 40 bd 41 0c 61 3c e8 54 ac 3d
       0.022378633 -0.047093466 0.013735832 0.08414632
0000b0 f9 eb 99 3d 2c be a0 bd 75 2c d8 bc 17 cc 81 bd
       0.07515711 -0.078487724 -0.026388386 -0.06337755
0000c0 c6 03 08 bd 25 4f f8 3c 9e be ad bc 40 64 82 bd
       -0.033206724 0.030311177 -0.021209057 -0.063667774
0000d0 8c 07 bd 3d 41 9f b8 3d 4d f7 64 bd 68 bf b5 3d
       0.09229955 0.0901475 -0.055899907 0.088743985
0000e0 da a1 57 3d 13 0d 11 3d ef 91 30 3d 0e 93 0e bb
       0.052644588 0.03541286 0.043107923 -0.0021755132
0000f0 6b bc 97 3c 26 c8 9f 3d 06 43 26 ba b0 ed f3 bc
       0.018522462 0.07801847 -0.0006342385 -0.029776424
000100 f7 f1 0e bd 5a 7e e0 3c 6d 3b d7 3c e7 ce f6 bb
       -0.034898724 0.027404 0.026273454 -0.007531989
000110 6e 29 b3 bd 98 ac be bd 9f 30 80 bd b9 bb 58 bd
       -0.087481365 -0.093102634 -0.06259274 -0.0529134
000120 44 5c 88 bc b8 41 06 bd 8c aa 5d 3d c1 b1 ae 3d
       -0.016645558 -0.032777518 0.054117724 0.085299976
000130 08 52 63 bd 04 c9 7f 3d e1 b2 49 bd 7d 26 62 bd
       -0.055498153 0.062447563 -0.049242858 -0.055212487
000140 58 5c ae 3d 58 a8 69 3d 0c 28 49 3d ec fb 21 3d
       0.08513707 0.05704531 0.049110457 0.039546892
000150 42 ab a4 bd 3c ae bc bd 2e cb 9b 3d e4 d3 2d bd
       -0.08040477 -0.0921292 0.07607113 -0.042438403
000160 de 98 47 3d 14 09 8e 3d 8e ec 5e 3d de 9f ad bc
       0.04872977 0.06935325 0.054424815 -0.021194395
000170 17 ab 71 bc 4c f7 23 bc 3a d5 3b 3b f1 91 97 3c
       -0.014750264 -0.010007691 0.0028661028 0.018502207
000180 60 95 3b 3d 52 24 0d 3d f5 38 87 bd 3b 18 9f 3d
       0.045796752 0.034458466 -0.066026606 0.077682935
000190 92 35 c8 3d 48 c8 bf bd 65 1c 0e 3c c5 96 82 bc
       0.09775843 -0.093643725 0.008673762 -0.015941033
0001a0 b7 eb 80 3d 6e 17 82 3d d4 ac 87 bc 25 2a 89 bb
       0.06294959 0.06352125 -0.016561903 -0.004185932
0001b0 58 62 60 3c e5 e8 55 bd a0 46 17 3c 38 71 6d bb
       0.013695322 -0.05222406 0.009233147 -0.0036230814
0001c0 b5 45 35 bd 40 37 99 3c 9c 94 9f 3c 9e 04 ab 3d
       -0.04425593 0.018703103 0.019480042 0.0835049
0001d0 28 5d c9 3d 7b 42 a7 3d 35 a1 4e bd 72 3f 04 bd
       0.09832221 0.08166977 -0.050446708 -0.03228707
0001e0 0a 34 d7 3c e1 94 87 bd 9e 42 8f 3d 3e 67 6a bd
       0.026269931 -0.06620193 0.06995128 -0.057227366
0001f0 89 6a 5d bc 02 4e 90 bd ec 74 ba 3d 29 f5 06 bd
       -0.0135141695 -0.07046129 0.09104332 -0.032948647
000200 76 52 86 bd cd 77 a9 bc a8 98 a0 3d f8 0f 4c 3d
       -0.06558697 -0.020687008 0.07841617 0.049819916
000210 da 76 8f bc 0c f2 3b 3d ba 64 31 3d 7b aa f9 3c
       -0.017512728 0.04588513 0.04330895 0.0304768
000220 8e 49 8b bc f1 c9 cd bc 97 45 86 bc a7 7f 93 3c
       -0.017002847 -0.025120707 -0.016390605 0.018005205
000230 74 df e6 ba 07 f4 f5 bc 7f 02 32 3d 8b e9 ab bd
       -0.0017614202 -0.030023588 0.04345941 -0.08394154
000240 6a 52 9a bd 72 f2 f6 bc 5b 33 8e bc a3 65 37 bd
       -0.075352505 -0.030144904 -0.017358473 -0.044774663
000250 c9 6a 06 bd 34 3c 33 3d 4a 6b 01 3d ba c0 b8 3d
       -0.032816682 0.043758586 0.03159646 0.09021135
000260 b2 ff 3d bd 66 7d 7a 3b 58 bc 2e bd f9 00 93 3d
       -0.04638643 0.0038221716 -0.042660087 0.0717792
000270 15 91 24 bc 22 23 e5 bc 9c 33 0c 3c f0 06 b1 3c
       -0.010044356 -0.027970854 0.0085572265 0.021609753
000280 2d bb 67 3d a6 0c 8f 3d 1f ec 1b bd b3 52 31 3c
       0.05657499 0.069848344 -0.03806698 0.01082294
000290 2c 15 0d bd e2 33 9e 3d fe 29 a7 3d 28 9b 4f 3c
       -0.03444402 0.077247396 0.08162306 0.0126712695
0002a0 d8 e1 86 bd f5 bb c1 3d 7b 35 24 3d 98 d4 11 bd
       -0.06586045 0.09459678 0.040090065 -0.035603136
0002b0 62 db 74 3d 0c a7 36 bd 31 55 0b 3c 5e 4a 38 bc
       0.059779532 -0.044592902 0.008504198 -0.011248199
0002c0 b4 37 42 bd 0a f4 ac 3c 09 52 bc bc a4 ac 92 3c
       -0.047416404 0.02111246 -0.022988336 0.017904587
0002d0 62 b9 cd 3b 10 3c 33 bc 33 f6 0c bd 44 7b 82 bc
       0.006278203 -0.010939613 -0.03441448 -0.015927918
0002e0 3f f6 80 bd 99 55 e3 3c 27 a9 76 3d 33 7d 62 bd
       -0.06296968 0.027750777 0.06021991 -0.05529518
0002f0 ca cc 95 bd 06 55 37 3c 81 36 6b bd ea 51 60 3b
       -0.07314451 0.011189705 -0.057425026 0.0034228512
000300 72 31 04 bd 4d 40 5a bd 92 a3 49 bd f7 c4 bf bb
       -0.032273717 -0.05328398 -0.04922826 -0.0058523375
000310 6a 36 fa 3c c2 a2 62 bd 69 b9 5c bd aa 87 c5 bb
       0.030543525 -0.055331 -0.05388776 -0.0060281353
000320 85 0a a0 bc 9d b7 61 bd b3 51 d9 bc eb 36 f0 bb
       -0.019536266 -0.055106748 -0.026528215 -0.0073307655
000330 44 e3 00 bd 1e d1 90 bc 33 a2 c4 bb 9e d5 4c 3d
       -0.031466737 -0.01767784 -0.006000781 0.05000841
000340 b5 a5 42 bd 69 74 0b 3d c9 6e 90 bd a0 0d 85 3d
       -0.04752131 0.034046564 -0.070523806 0.064967394
000350 db 3f 07 bc 05 f0 cf bd 70 74 9f bc 21 4c ea ba
       -0.00825497 -0.10153202 -0.019464701 -0.0017875471
000360 3b 1a aa bd 03 40 50 bd db 8c b9 b9 d3 fe 0a bd
       -0.08305784 -0.050842296 -0.00035390895 -0.033934426
000370 79 a1 05 3d c5 05 83 3d 28 7f cf 3d 08 1e 0d 3d
       0.032624695 0.06397585 0.10131675 0.03445247
000380 af da 18 bd 5e b4 6d bd 7d 57 a2 bd a7 0e 3b 3d
       -0.037317928 -0.05803334 -0.07926843 0.04566827
000390 55 76 95 3d 2a 68 8b 3d b4 8b a1 3c 20 b0 7b 3d
       0.07297961 0.06806977 0.019719936 0.061447263
0003a0 8e 54 17 bd 0f 7b 26 3c bb 95 9a bd 38 69 92 bd
       -0.036945872 0.010161175 -0.0754809 -0.07148975
0003b0 e1 b6 89 bd 1b 98 71 3d 6b fc 86 bc 17 55 13 3d
       -0.067243345 0.05898295 -0.016477784 0.03596982
0003c0 51 db f6 bb 88 18 f3 3c 64 8f 7a 3d 3d 26 5d 3d
       -0.007533469 0.029674783 0.061171904 0.053991545
0003d0 23 f5 ee bc 8c ce 31 3d e8 93 18 bc 07 c3 8a 3c
       -0.029169625 0.04340987 -0.009312607 0.0169387
0003e0 41 d0 a4 3c c3 eb a0 ba 76 e5 bc 3c 92 8c 2d bd
       0.020118834 -0.0012277294 0.023058634 -0.042370386
0003f0 9d b0 6f 3d 48 5a 0a bd d8 be 15 bd d1 10 38 3d
       0.05851804 -0.033777505 -0.036558956 0.044937912

lstm.weight_ih_l1 f4 [512, 128]
000000 e9 f2 88 3d 37 3b d6 bc 5a e8 9c bd 23 ba bd bd
       0.066869564 -0.026151283 -0.07661505 -0.092640184
000010 b9 4b bc bc 4c 74 ab 3d 32 0d ba bd 6b e2 73 3d
       -0.022985326 0.08371791 -0.09084548 0.0595421
000020 ef d5 86 bd 71 34 1d 3d 9a b4 28 bd 90 de d9 bc
       -0.06583773 0.03838009 -0.04118786 -0.026595384
000030 d5 ea 06 bd 22 49 84 3d 88 4e a2 bd 2e 38 07 3d
       -0.032938797 0.064592615 -0.07925135 0.03301256
000040 9b f8 07 bd 08 c3 bc bd 81 83 56 bd da f9 bc bd
       -0.033196073 -0.09216887 -0.052371506 -0.09227343
000050 65 62 8d bd 42 de 1f 3d b6 ea 4b bd 61 10 89 3d
       -0.06903533 0.03903032 -0.049784385 0.06692577
000060 69 af 56 bd 80 fc aa bd 57 2b 8a 3b 2f 31 6a 3d
       -0.052413378 -0.08348942 0.0042165923 0.05717581
000070 eb 38 85 3d 48 85 3e bd 47 c6 b8 3b 71 97 43 bd
       0.06504997 -0.046513826 0.005638871 -0.047751848
000080 b7 7c a0 bd 17 1e a2 3c 53 97 d4 3c d7 4c d0 bd
       -0.078362875 0.019789739 0.025951063 -0.10170906
000090 15 cd 07 bd 98 62 7d bd 6e 6a fc 3c 6c 23 1c 3b
       -0.033154566 -0.061861604 0.030812468 0.0023824824
0000a0 f4 78 68 3d 3f 73 14 bd a0 c8 30 bd b1 8d 53 bd
       0.056755975 -0.03624272 -0.04316008 -0.0516488
0000b0 f7 bb 97 bd 55 59 b5 3c 3f 13 20 bc 33 56 d9 b8
       -0.07408898 0.022137323 -0.009770214 -0.00010363422
0000c0 69 71 18 b9 55 9e 95 bd 54 b2 20 3c 2a 71 65 bd
       -0.00014538098 -0.0730559 0.009808142 -0.056016125
0000d0 c5 5d 57 3d 0a 54 98 3d 8d 3d 97 bd 8d 5e a9 bc
       0.05257966 0.07437904 -0.07384787 -0.020674968
0000e0 a5 e8 69 bd 50 48 63 3d b3 d3 47 bc b2 3f c0 3c
       -0.057106633 0.055488884 -0.012196469 0.023467872
0000f0 e5 7f 4f 3c 07 f8 ae 3d 51 e3 c7 bc 8b 48 34 bd
       0.01266477 0.08543401 -0.024400385 -0.044014495
000100 88 f5 03 3d 05 89 7a bd ed 52 b4 3d 3e 08 16 bd
       0.03221658 -0.06116583 0.08804879 -0.036628954
000110 0e da 20 3d 64 ef 0c bd cc 54 ce bd c1 1e 43 3d
       0.039270453 -0.03440799 -0.100747675 0.04763675
000120 4e 55 64 bc 60 ba 0b 3d 7c 93 54 bd e0 18 c9 bd
       -0.013936354 0.034113288 -0.051898465 -0.09819198
000130 9e d5 85 bd 49 6c 19 3d 94 c9 2b 3c cf 9d d9 3a
       -0.06534885 0.037456784 0.010485072 0.0016602817
000140 7f f5 13 bc 0b b3 ae 3c 30 bf 81 3b 6f 18 8b 3d
       -0.009030699 0.021325609 0.003959559 0.0679177
000150 a8 2e 96 bc d9 37 d7 3b b9 ec 1b bb 8e 35 13 3d
       -0.018332794 0.006567937 -0.002379222 0.035939746
000160 b4 ed ff bc 73 52 cc bd 6e dc 8e 3d 5d dc 77 bd
       -0.031241275 -0.099766634 0.069756374 -0.06051289
000170 a6 3a b0 3c 44 d6 02 3d 3a c0 8a bd 87 45 a5 bd
       0.02151234 0.03194262 -0.067749456 -0.08069902
000180 b6 fe 02 3c 64 dc 06 3d 01 ae 14 bd 8f 5f 1b bd
       0.007995298 0.032925025 -0.036298756 -0.03793293
000190 6e 75 9a bd c9 5c 8f 3d bd 12 ad 3c 84 76 07 3d
       -0.07541929 0.07000119 0.0211271 0.03307201
0001a0 99 39 1e bd 96 89 12 3d df f9 dc 3b fe fa 7e 3b
       -0.03862915 0.035775743 0.006743654 0.0038906927
0001b0 83 ca 80 3d 79 b5 75 3c 1d 1e 90 3d c9 67 b2 bc
       0.06288626 0.01499688 0.07036994 -0.021778004
0001c0 9e c6 a5 3c 3f d0 43 3c fa 16 8b 3d 07 48 b4 bc
       0.02023631 0.011951505 0.06791492 -0.022007002
0001d0 95 6a 21 bd 6a 23 ca bd ab 1d 67 bc 91 7c 89 3c
       -0.039408285 -0.09870036 -0.0141061945 0.01678303
0001e0 44 37 ff bc 54 fa fc 3c a6 07 b4 bd 32 d4 d9 bb
       -0.031154282 0.030881085 -0.08790521 -0.00664761
0001f0 8d bc 9d 3d 9e ce 95 3d 6e 6d 61 3c d2 cb 41 3d
       0.07701979 0.073148 0.013759 0.04731352
000200 2c df 58 3d 70 75 62 3b 82 20 2b 3d cb 16 8a 3d
       0.05294721 0.0034554861 0.04177905 0.06742629
000210 ab 85 3d bd 72 0a 13 bd 18 dd a9 bb da 32 c8 bc
       -0.046270054 -0.035898633 -0.005183827 -0.02443831
000220 31 a9 9a bd 02 a0 04 b9 ff 37 a3 bd 28 3e 3f 3d
       -0.07551802 -0.00012648109 -0.07969665 0.046690136
000230 b6 68 c9 bc e8 94 aa bd 49 bd 9d 3d 8c c8 b7 bd
       -0.024586063 -0.08329183 0.07702119 -0.08973798
000240 aa ba 04 bd d0 43 6c 3d fa be 90 3d f7 cb a8 bd
       -0.03240458 0.05768186 0.07067676 -0.08242028
000250 b8 1d 89 bd 47 91 76 3d ad 01 97 3d 5d e5 80 3d
       -0.066951215 0.06019714 0.073733665 0.062937476
000260 ad 4b d5 3c c4 87 2a bd 22 b5 11 3d b0 c5 b0 bd
       0.026037062 -0.041633382 0.035573132 -0.08631456
000270 66 f7 4e bc cd 2a 11 bc 90 6e 3f 3c c1 1b ce bc
       -0.012632227 -0.008860302 0.011684075 -0.025159718
000280 1d 01 08 3d 32 01 63 3c 6f 87 cd bd 58 c8 f2 ba
       0.033204187 0.013855265 -0.100355975 -0.0018522842
000290 bd a3 f0 3c 1e 6f d3 3c b8 b7 8c bd 89 a6 96 bd
       0.029374951 0.02580982 -0.06870979 -0.07355983
0002a0 a5 0f 87 3d da 1a 34 bd 04 81 96 bb 5d 18 88 bd
       0.06594781 -0.04397092 -0.0045930166 -0.06645272
0002b0 f8 ab ad 3d a6 86 0a bd bf c6 63 bd ca 31 aa bd
       0.08480066 -0.033819817 -0.05560946 -0.08310278
0002c0 b3 cf 8e bd 59 90 36 3d 50 b4 31 bc d7 01 8f bd
       -0.06973209 0.044571254 -0.0108462125 -0.06982773
0002d0 68 b1 92 3d 6d 0b 47 3d b2 44 7c 3d d1 4f 11 3d
       0.07162744 0.04859488 0.06158895 0.03547651
0002e0 4f ca 22 bd 67 b0 f7 bc 62 23 96 bd 77 4d 4f 3c
       -0.039743718 -0.030235482 -0.073309675 0.012652746
0002f0 61 ff 10 bc b2 6e 28 bd dd 81 0e bd c5 6d 77 bd
       -0.00884995 -0.041121192 -0.034791816 -0.06040742
000300 e1 68 ac 39 72 fa 3d bd f1 60 16 bc 2c 78 51 bd
       0.00032884537 -0.04638142 -0.009178386 -0.051139995
000310 04 a1 9f bd 69 77 9a 3d e4 df 81 3c 4b 77 1d 3d
       -0.07794383 0.07542307 0.01585383 0.038443845
000320 98 9c 16 bc c7 41 9f bd f5 e6 7b bd f2 69 4b 3d
       -0.009192608 -0.07776218 -0.061499555 0.049661584
000330 49 3d 4a bd 7c 78 c5 3c 84 5d c0 3c 9f d8 62 bb
       -0.049374852 0.024105303 0.023482092 -0.003461398
000340 40 44 15 3d cd 25 98 bd 3c 35 12 3d b5 67 c6 bc
       0.03644204 -0.07429085 0.0356953 -0.024219373
000350 e1 9c a6 3c 3c 15 1f bd 5f 13 74 3c 2f b2 6e 3d
       0.020338478 -0.03883861 0.014897197 0.058275398
000360 a5 92 0d bd 00 49 89 bb b3 ba 9c bd 40 9b bb 3d
       -0.03456368 -0.0041896105 -0.076527975 0.09160471
000370 63 ac 51 bd 30 8f 79 bc fe 43 8a 3d fa 5d 9e 3d
       -0.05118979 -0.0152318925 0.0675125 0.07732768
000380 15 5b 88 3d 19 af 59 3d 00 ed 39 bc 54 8f 8a bd
       0.066579975 0.0531455 -0.011348009 -0.06765619
000390 b4 4f 6b bd 22 2f 9c bd f0 1d 89 bc c6 e7 50 3d
       -0.057449058 -0.07626177 -0.016737908 0.051002286
0003a0 4f 27 ed 3b ae dd dc 3c fc af 77 3d 30 f2 74 3d
       0.007237352 0.026961174 0.060470566 0.05980128
0003b0 9f 4f 80 bc 28 5b a3 3d a5 8e a3 bd 04 01 82 bd
       -0.015662966 0.07976371 -0.07986192 -0.0634785
0003c0 7e 94 84 bd 2d 1d d4 bb 41 98 78 bd f9 cf ea 39
       -0.06473635 -0.0064732046 -0.060692076 0.0004478691
0003d0 56 c2 97 3d de 6f 06 bd 9f f8 83 3d 10 5f a7 bd
       0.074101135 -0.03282153 0.06443905 -0.081724286
0003e0 26 51 11 bd 7d bf 91 3d 80 0a 1b bd 48 21 d0 bd
       -0.03547778 0.071166016 -0.03785181 -0.10162598
0003f0 59 42 67 3d 35 d7 6c bc 15 6f 99 bc ec cc 6e bd
       0.05645976 -0.014455606 -0.018729726 -0.058300897

lstm.weight_hh_l1 f4 [512, 128]
000000 a4 23 a4 3c 9f 1d c9 bd 50 ab 00 bd e3 30 b4 bc
       0.020036526 -0.09820103 -0.031413376 -0.021995967
000010 49 92 7a 3c 0d 37 5f 3d a9 d0 f1 bc b3 a8 d8 b9
       0.015293666 0.05449586 -0.029518442 -0.0004132442
000020 69 9f 4f 3d 19 37 39 bd 6b d3 d4 bc a1 5b a8 3d
       0.050689135 -0.04521856 -0.025979718 0.08220602
000030 23 67 64 3c ee 83 c3 bd e7 b5 91 bc 2d b4 63 3b
       0.013940605 -0.09546648 -0.017786933 0.0034744844
000040 8c 81 99 3d 2e 49 41 3c cd 50 64 bc b9 c8 07 3c
       0.07495412 0.011797233 -0.01393528 0.008287602
000050 c0 73 9f 3d 6d bf 9e 3d 1a e9 f0 3c 78 77 9e 3c
       0.077857494 0.07751355 0.029408026 0.019344077
000060 b3 cf 76 bc 3d 11 93 3c 07 32 a7 3d 1d 22 38 bd
       -0.015064168 0.017952556 0.08163839 -0.044954408
000070 e5 8b b9 bd 0e c0 5b 3d ae 05 b8 bd b2 1c d2 bd
       -0.09059886 0.053649954 -0.08985458 -0.102593794
000080 00 d8 9f 3d e8 3b 82 3d 79 e2 35 3d dc 2f 99 3d
       0.078048706 0.063590825 0.044405434 0.074798316
000090 cd db a5 bd cf 58 c4 3c 66 ae 5c 3d d9 0d 61 3d
       -0.08098564 0.023968128 0.053877257 0.054944847
0000a0 27 2a 25 bd 7a 49 6e bb d2 f3 39 3b 9e e7 69 bc
       -0.040323403 -0.0036359713 0.0028374088 -0.014276413
0000b0 05 83 39 3a 57 8a 01 3d 51 cb e8 bc 94 bb 1b bd
       0.00070767134 0.03162607 -0.028417261 -0.038020685
0000c0 53 e2 97 3d 63 bd c6 bd 8a 69 ae 3d 8b 25 be bc
       0.07416215 -0.097040914 0.08516224 -0.023211261
0000d0 d4 33 56 bd 95 26 d5 3c 22 e6 f8 3c c3 cf 54 bd
       -0.05229552 0.026019374 0.030383173 -0.05195595
0000e0 ff 89 c0 3d 44 f9 b1 3d ae 45 87 3d 60 28 3b bd
       0.09401321 0.08690122 0.06605087 -0.0456928
0000f0 0f 55 f0 bc c9 21 66 3b b0 0b 8d 3d cd 84 1e bd
       -0.029337434 0.0035115352 0.06886995 -0.038700867
000100 85 dc 95 3c 2e 01 aa 3d 66 a7 85 bc 49 bf 80 bd
       0.018293628 0.08301006 -0.016315173 -0.06286485
000110 8c 4f cb 3d 0f ca 12 bd d9 ff 2f 3d 92 43 8e 3d
       0.09927282 -0.03583723 0.042968605 0.06946482
000120 26 bb 27 bd 7a 0a b9 bc 9d 7d 82 bd c5 fa 2b bd
       -0.040949963 -0.022588003 -0.06371615 -0.0419872
000130 e0 32 9b bd eb 83 60 3d 1e 48 5a 3d d1 bb 09 3d
       -0.07578063 0.054813307 0.053291433 0.03362638
000140 7d 8c 94 bd 62 51 38 bd 25 1c 12 3d 64 f6 d5 bd
       -0.072533585 -0.044999488 0.035671372 -0.10447386
000150 8a c8 7c 3d ca 5a c5 bb 8e 05 c6 bc 0f 02 58 bd
       0.061714686 -0.006022786 -0.02417257 -0.05273634
000160 74 8d 60 bc 06 e7 64 bd f0 6c 66 bc 24 55 ad bc
       -0.0137056 -0.055884384 -0.014064059 -0.021158762
000170 46 96 ac bb c0 9f 0f 3d f0 4e 04 bd 81 44 29 bd
       -0.0052669374 0.03506446 -0.032301843 -0.041325096
000180 7d 81 3b bd 81 b0 8d 3c 66 31 f1 bc 06 53 57 3d
       -0.045777787 0.017296078 -0.0294425 0.05256941
000190 6f be 93 bd 5e 8b 92 3d 50 c2 e4 bc 8c ac 22 3d
       -0.07214057 0.071554884 -0.027924687 0.039715335
0001a0 58 cb 4d bd ac e2 4a 3d 4b 95 2d 3b 23 8e dd bc
       -0.05024275 0.049532577 0.002648669 -0.027045315
0001b0 e1 33 ad bd c6 81 ad bc dd 2e 70 3d 94 37 39 3d
       -0.08457161 -0.021180045 0.058638442 0.04521902
0001c0 b4 62 5b 3d 77 d0 54 bd 82 99 ec bb 96 25 06 3c
       0.053560928 -0.05195662 -0.007220448 0.008187672
0001d0 3c d3 13 3a 92 e1 89 3d ab e0 82 3d ae 9b 71 3d
       0.00056390814 0.06732477 0.06390508 0.05898636
0001e0 7a 56 d5 bb de 42 8c bd 2f ed 88 bd c8 fc 82 3d
       -0.006510553 -0.068486914 -0.06685864 0.063958704
0001f0 ae 4a 74 bd a9 01 bc bb ea bd 72 3d 4f e7 48 bd
       -0.059641533 -0.0057375026 0.059263147 -0.049048718
000200 04 51 a1 ba 42 70 5f bb dd 9c 12 3d 0f f4 b6 bd
       -0.001230747 -0.003409401 0.035794128 -0.08933269
000210 70 02 ce bc 27 8b 43 3d 03 04 15 bc 40 ea 65 3d
       -0.025147647 0.047740128 -0.009095195 0.0561316
000220 c4 2e 5c bd 10 a4 2a bd d9 3f 74 bd 1d 24 c8 bd
       -0.053755537 -0.04166037 -0.059631202 -0.09772513
000230 c7 7f b7 3d c2 24 a6 3d 06 ce 7b 3d 12 27 15 bd
       0.089599185 0.0811248 0.061475776 -0.036414213
000240 4b 23 25 bd d6 01 11 bd db 51 ab 3c 43 1d 7f 3c
       -0.04031686 -0.03540214 0.020913055 0.015570941
000250 e3 f2 ae bc 9f 6e 40 bd 1f 66 10 3d f5 ab 1d 3d
       -0.021356052 -0.046980496 0.03525364 0.03849407
000260 ce d5 13 bd cb 07 3a bc 54 52 87 bd b5 76 c6 bc
       -0.036092572 -0.011354397 -0.066075 -0.024226526
000270 bd 4b 26 bd 3e eb 0e bd bf cc 21 bd 3a 59 87 bc
       -0.040599573 -0.034892313 -0.0395019 -0.016522039
000280 98 43 c0 3d d7 77 3c 3c ea bf 7a bd 30 9d 88 3d
       0.093878925 0.011503181 -0.06121818 0.06670606
000290 61 8b 99 bc d0 d0 5d 3d a1 04 c3 bd b5 38 1a bc
       -0.018743219 0.054154217 -0.09522367 -0.009412934
0002a0 36 81 85 bb 72 24 64 bd 9c 88 96 bd f6 8e 48 3d
       -0.004074241 -0.05569882 -0.07350275 0.048964463
0002b0 20 bf 81 3d 22 ee 8a bc 02 e9 76 bd 18 fe 8e bd
       0.06335282 -0.016959254 -0.060280807 -0.06982058
0002c0 c2 9d b3 ba 77 59 a2 3d a4 03 c7 bc 8a 06 18 bd
       -0.0013703632 0.0792722 -0.024293728 -0.03711561
0002d0 74 24 85 3d f5 25 5f 3d 9a 3d 98 3d c2 36 6e 3a
       0.065010935 0.054479558 0.074336246 0.0009087139
0002e0 3c 69 b2 bd ff de 7b bc ff 10 d1 bc 08 9a 91 3d
       -0.08711478 -0.015372991 -0.0255208 0.07109457
0002f0 a5 b9 5e bd d2 80 c5 3b a2 76 a2 bd 2c 3b 66 3d
       -0.054376263 0.0060273195 -0.07932784 0.056208774
000300 1b 6e 67 3d 6c 66 e5 bb 6c 04 88 bd 61 0b f7 bc
       0.05650149 -0.007000735 -0.066414684 -0.030156793
000310 08 63 22 3d b6 5a 40 3d bc 77 04 3d 09 91 8f 3d
       0.039645225 0.04696151 0.03234075 0.07010085
000320 d3 88 81 3d be b3 b8 bc 19 af 35 3d ea f7 98 bb
       0.06324925 -0.022546645 0.04435644 -0.0046682255
000330 a9 04 7d bd 36 30 5b 3d e0 44 8b bc 9c 82 99 3d
       -0.061772022 0.053512774 -0.017000616 0.07495615
000340 42 23 c7 3d 6a d4 dc bc c5 d9 9b bd 62 ea 77 3d
       0.09723522 -0.026956756 -0.076098956 0.06052626
000350 7d 1b 27 3d e4 e0 c6 bd 08 b0 69 bd 70 1a 1a bd
       0.0407977 -0.09710863 -0.057052642 -0.03762287
000360 00 8e 8e 3d b3 6b 52 bd 5a d1 89 bd f0 0f bf 3d
       0.06960678 -0.05137224 -0.06729384 0.09329212
000370 b7 c2 25 bd 48 aa 91 3d d3 9d 32 bd 84 2e 82 bd
       -0.040468898 0.07112557 -0.043607544 -0.063565284
000380 37 f7 96 bd e0 0f 20 3d e5 7e 54 3d 99 35 4e 3d
       -0.07371371 0.03907764 0.05187883 0.050344083
000390 62 e2 a7 3c 59 d4 90 3c 18 17 00 3c 2e 3c 8e bd
       0.02049369 0.01767938 0.007818006 -0.06945072
0003a0 48 c2 90 bd af 6c 86 bd ec 7e 51 bd aa 5f 81 3d
       -0.07068306 -0.065636985 -0.051146433 0.063170746
0003b0 ec 0d e2 3c d1 ef 50 3d 20 00 2b bb 02 84 41 3d
       0.02759453 0.051009957 -0.0026092604 0.047245033
0003c0 3f ad 17 bd 93 5c b7 bd 59 7d bd bd 1b 26 2a 3a
       -0.037030455 -0.08953204 -0.09252424 0.00064906635
0003d0 0e 4d 29 3d 26 0f 8e bd e7 57 b2 bc 34 9c 71 3c
       0.04133325 -0.06936483 -0.02177043 0.014746714
0003e0 35 1b 7e 3d d0 6f 3e 3c 0a 09 cd bd 56 8b 04 3d
       0.062037665 0.011623338 -0.1001149 0.032359444
0003f0 9b e9 bc 3c ab df 31 3d a4 ae 2d bd 5c 81 ff ba
       0.02306061 0.043426197 -0.04240288 -0.0019493508

lstm.bias_ih_l1 f4 [512]
000000 a5 c9 b7 3d 8e 6c ca bd a6 01 26 3d 86 0f a4 bc
       0.089740075 -0.098839864 0.040528916 -0.020026933
000010 c5 4c 47 bd e0 1c 1d 3d da e7 91 3c 89 5d 86 3d
       -0.048657198 0.038357615 0.01781075 0.06560809
000020 55 50 c7 bb f4 3c c5 3d 60 37 9d 3b 06 be 98 3c
       -0.0060825744 0.096307665 0.004797861 0.018645298
000030 fe 37 1b 3d 6f a4 69 3c 55 42 5c 3c fd c3 5b 3d
       0.037895195 0.014260395 0.013443549 0.053653706
000040 0e ea b7 bd 01 e3 8d 3b 0b 4c 11 bd 90 e7 d9 bc
       -0.08980189 0.0043300395 -0.03547291 -0.026599675
000050 02 72 67 3d b4 1a 3a 3d 1a 47 31 bd 98 c9 74 3c
       0.05650521 0.045435622 -0.0432807 0.014940642
000060 8c 1a a5 3d b2 7c 81 3d 9c 92 88 bd 42 98 9c 3d
       0.08061704 0.06322612 -0.066685885 0.076462284
000070 37 54 2c bd d5 be 45 bc cf 90 1f 3d f0 95 c0 ba
       -0.0420725 -0.012069424 0.03895646 -0.0014693122
000080 f5 67 61 3d a1 46 ce bb 0a 14 82 3c 71 73 07 bd
       0.05503078 -0.0062950407 0.015878696 -0.033069078
000090 21 4a 78 3c d2 f2 3f bd bc 40 bc 3d 27 d5 84 bd
       0.015154392 -0.04686243 0.091920346 -0.06485968
0000a0 bd 3e 1e bd bc 64 4a 3d 56 f7 e8 3a 0a d6 00 bd
       -0.03863405 0.049412474 0.0017773907 -0.031454124
0000b0 92 e3 9f 3d 5e 0e 2b 3d bc d6 84 bd 2f ae 0f bd
       0.078070775 0.04176175 -0.0648627 -0.035078224
0000c0 6f ba 98 3d de 3c 3d 3c 67 0e 49 bd 3d e3 51 bb
       0.074574344 0.011550156 -0.049086 -0.0032026314
0000d0 af a5 96 bd f3 6f 7e 3d 72 e0 0e 3b 94 f3 35 bd
       -0.073558204 0.06211848 0.002180126 -0.044421747
0000e0 69 70 cf bc 1a 56 2f bd dd 6d 9c 3d 5c cf e9 bc
       -0.025322156 -0.042806722 0.07638142 -0.02854126
0000f0 aa 88 cc 3d 5a d2 22 3d 59 d9 22 3d 08 92 6c 3d
       0.09987004 0.039751388 0.03975806 0.057756454
000100 1b 0a a1 3d e4 56 4a bd 08 07 87 bd 85 ff a3 3d
       0.078632556 -0.04939927 -0.06593138 0.08007721
000110 82 48 54 bc 78 3f a8 3d 75 d3 47 3c ef 12 7b bd
       -0.01295674 0.08215231 0.012196411 -0.061297353
000120 ed 80 33 3d 61 d6 88 3d 98 e6 9e 3d e9 e0 97 bd
       0.043824125 0.066815145 0.07758826 -0.07415945
000130 9e 48 77 bd b2 79 8c bb 50 5f 57 39 dc d0 b3 3d
       -0.060371988 -0.004286968 0.00020539504 0.08780071
000140 ba 48 07 3d 13 2e 9f 3c 72 87 20 3c 0a d1 4c bd
       0.03302834 0.01943115 0.009797918 -0.050004043
000150 5c 06 a5 3c d7 9c 8d 3b 0b e7 b1 3d c0 9c 98 3c
       0.020144634 0.0043216753 0.08686646 0.018629432
000160 e3 b8 80 3d 03 60 b3 bd 46 ad 5c 3b 64 91 89 bd
       0.06285264 -0.08758547 0.0033672615 -0.06717184
000170 61 54 5c bd a7 26 77 bc c7 50 85 3c 11 d9 15 3d
       -0.053791407 -0.015084899 0.01627387 0.036583964
000180 8d 0b 92 3d 11 ee 87 3c 37 98 12 bd ac 8d 55 3d
       0.071311094 0.016593011 -0.035789695 0.052137062
000190 63 79 02 3d 85 f6 6e 3d 51 59 07 3d 8b 55 50 3d
       0.031854045 0.058340568 0.033044163 0.05086283
0001a0 9c 70 92 3d 9c b0 03 bc 67 82 0a bd 22 48 7a 3d
       0.07150385 -0.008037712 -0.033815768 0.061103947
0001b0 b8 81 c6 3d 5e e2 2e bd c9 59 3c bc f7 df 97 bd
       0.09692711 -0.04269635 -0.011496016 -0.07415765
0001c0 92 4f 54 3c 90 06 5d bd 7e f0 c3 bd ad 42 67 bd
       0.012958424 -0.053961337 -0.095673546 -0.05646007
0001d0 93 cc 9b 3d 77 43 9f bc 7b 71 7a bd ba 1f 4c 3d
       0.07607379 -0.01944135 -0.06114338 0.049834944
0001e0 cb 16 2e 3d 8f 64 a9 3c df b0 a2 bc 55 4f 9b bb
       0.042502206 0.020677833 -0.01985973 -0.0047396817
0001f0 e9 7f fb 3c 5f 3c 68 bd d1 8f e0 3c ff 6f 95 bd
       0.03070064 -0.0566982 0.027412327 -0.07296752
000200 51 1b 24 ba db 64 d0 bd 05 39 e2 3c 5b 03 45 bd
       -0.0006260174 -0.10175487 0.02761508 -0.048098903
000210 7b cd 81 3c ae 6a 9a 3a 57 3c a6 bc fa e1 45 bd
       0.015845051 0.0011781061 -0.020292444 -0.04831121
000220 31 b4 af 3d f9 9b ef bb ff 98 e2 bc aa 8f 8c 3d
       0.08579291 -0.0073122946 -0.027660845 0.06863339
000230 43 9a 16 3c 08 8b 82 bd e6 d9 52 bd 6c c1 5c bc
       0.009192052 -0.06374174 -0.051477335 -0.01347385
000240 75 7f fd bc f9 d6 bb 3c 23 10 53 ba 8c 53 87 bd
       -0.030944565 0.022929655 -0.0008051416 -0.06607732
000250 d0 a4 b2 3c ec 86 19 3d 82 38 aa 3d 4f dd 99 3c
       0.021807104 0.037482187 0.08311559 0.018782286
000260 e2 63 2c 3d 69 1f d2 3b 60 df 28 bd 2b d2 bf bc
       0.042087443 0.006412436 -0.041228652 -0.023415646
000270 09 30 08 bd 47 a4 28 bd 92 60 8f bd ea 0b 91 3d
       -0.033248935 -0.041172292 -0.07000841 0.070823506
000280 2b 2a 90 bd bb 89 58 bd 34 74 54 bc 48 e9 33 bd
       -0.07039293 -0.052865725 -0.012967158 -0.043923646
000290 ee 43 0d bd fd 8e 9f bc ac 8a 47 bd 16 f1 bb 3d
       -0.03448861 -0.019477362 -0.048716232 0.09176843
0002a0 17 17 a0 3d 3b 09 94 3d d9 93 2a 3d c2 6f a7 3d
       0.07816904 0.07228323 0.041644905 0.08175613
0002b0 26 9f 47 3d e6 f6 07 bd 84 76 1c 3b 3a e1 97 bd
       0.04873576 -0.033194445 0.0023874352 -0.074160054
0002c0 f6 1b d8 bc 9f 4b 33 3d ad 4c 86 bc 2e a5 9f 3d
       -0.02638052 0.04377329 -0.016393984 0.077951774
0002d0 88 78 aa ba aa 9f f7 3c d0 19 4e 3c 11 bc 3b 3a
       -0.0013005892 0.030227501 0.012579396 0.0007161508
0002e0 4b 80 99 bd 96 3b 9c 3d 1f 42 89 3d 76 02 9b bc
       -0.07495173 0.076285526 0.06702065 -0.018922072
0002f0 65 8d 86 bd 7b a7 28 3d d0 7c 69 bd ac 39 3a 3b
       -0.065699376 0.041175347 -0.057003796 0.0028415723
000300 58 5d 2d 3d 6f ab 8c 3b 34 15 ab bd bf 37 8f bc
       0.042325348 0.0042928974 -0.083536536 -0.017482636
000310 f6 8c 49 3d 3e 8a b1 3c 0a 21 4a 3d cf d7 9d bd
       0.049206696 0.021672364 0.049347915 -0.07707178
000320 c1 9a 74 3b 16 78 6c 3d 4e 01 c8 3d d9 2c 3c 3d
       0.0037323686 0.05773171 0.09765874 0.045941208
000330 67 fc bd bd a3 9a 3a bd ed ec 82 bc 27 c4 93 bd
       -0.092766576 -0.04555763 -0.015982116 -0.072151475
000340 c7 96 12 3d c0 14 42 3d 2f cf 07 bd 89 05 e1 bc
       0.035788324 0.04738307 -0.03315657 -0.02746846
000350 ff ed 51 bb ec e6 31 bd 2f 14 e5 3c bf 3e 22 3d
       -0.0032032726 -0.043433115 0.027963726 0.03961062
000360 84 1f 63 bd 50 35 58 bb 9a c9 a9 3d b5 30 72 3d
       -0.055449978 -0.003299076 0.082904056 0.059128482
000370 d7 f6 8f bd 9e a0 28 bc 5e c6 c6 3d db fd ac 3c
       -0.07029503 -0.0102922 0.09705804 0.021117141
000380 ee 9d 58 3c a5 77 9b bc f7 d8 af bc dc b3 98 3d
       0.013221247 -0.01897795 -0.021465762 0.074561805
000390 28 43 8f 3d 5f c6 44 bc 20 0f 3a bd 60 26 a0 bc
       0.06995231 -0.012010186 -0.04542458 -0.019549549
0003a0 44 5e ba 3d 38 9a 20 bc 33 99 95 bd 8c e0 2e bd
       0.09100011 -0.009802394 -0.07304611 -0.042694613
0003b0 dc 39 cd bc 29 ba 72 3d e9 82 74 bb 8e 8e 51 3c
       -0.025052004 0.059259567 -0.0037309474 0.012790335
0003c0 e6 af 6c bd 38 ac eb bb f0 02 4f bc b6 6c 08 bd
       -0.057784937 -0.007192161 -0.012634978 -0.0333068
0003d0 d7 04 59 3d 6a dc b0 3d 7d bc 94 3d 93 14 24 bd
       0.05298313 0.08635791 0.07262514 -0.040058684
0003e0 d5 8e 7b 3d ec ce 62 bd 80 e3 82 bd af d3 85 3d
       0.061415512 -0.055373117 -0.063910484 0.06534516
0003f0 d0 36 d5 3c 6d 1d f7 3c 0c b7 0e 3b fc 52 7f bb
       0.026027113 0.030165398 0.0021776585 -0.0038959375
